GPU_human_play/current_res_policy.model (torch, 899931 bytes, 19 tensors)

conv1.weight f4 [32, 4, 3, 3]
000000 17 5d 10 3d c7 5c 32 bd 15 96 0a be 14 3e f0 3d
       0.035245027 -0.04354551 -0.13533814 0.117305905
000010 16 cf ef bc 5d b1 a3 bb 9b 05 f3 bc 9d 91 4c 3d
       -0.029273551 -0.0049955086 -0.029665759 0.049943555
000020 22 97 23 3d da c2 e5 3b e2 07 2d bd 2d 54 fb 3e
       0.039939053 0.0070117535 -0.042243846 0.4908766
000030 35 30 ce 3e c4 36 8c 3e 17 33 9b 3e 61 f7 24 bd
       0.40271154 0.27385533 0.30312416 -0.04027498
000040 75 d4 fc bd fe 40 7e bd 73 88 93 bb 9c 22 c0 3c
       -0.123452105 -0.0620737 -0.00450235 0.023454003
000050 38 1f c1 bd 6c 5b 95 bd c4 38 b3 bd 77 94 e7 bc
       -0.09429783 -0.07292828 -0.087510616 -0.028269036
000060 d7 cb 06 3e f0 d7 c0 3b 67 a1 80 3d 70 1b 84 3d
       0.13163696 0.0058851168 0.06280785 0.06450546
000070 c0 5e 87 3d fe eb aa 3d 87 86 62 3d 8e 1b a7 3c
       0.06609869 0.08345793 0.055304077 0.020398881
000080 b6 5b a5 3b 10 5f b7 bc 05 6b 68 bc 44 f3 46 be
       0.005046333 -0.022384197 -0.014185672 -0.19428736
000090 8c 7f a4 3e 08 1f 0e 3e 89 82 f7 3c 53 ca 39 3b
       0.3212856 0.13879025 0.030213611 0.0028349354
0000a0 d4 97 e8 3d 7f b9 d4 bd 78 2c be bd f8 49 7e bd
       0.11357084 -0.10386943 -0.092858255 -0.06208226
0000b0 ea 5e a2 bd ce 48 87 be 04 fb d1 bd 6b 8b b9 3e
       -0.0792826 -0.26422733 -0.102529556 0.3623918
0000c0 99 6f c9 3d a3 f4 22 bd 84 e8 86 3d ad a2 ac 3e
       0.09835739 -0.039784085 0.065873176 0.33717862
0000d0 3c 0e 5e 3e af 13 21 3e 49 fe 27 be c7 57 07 be
       0.21685117 0.15730165 -0.16405596 -0.13217078
0000e0 d6 a2 2d 3d 42 cc a2 bd 2e 39 a5 bc b0 23 fc bc
       0.04239162 -0.07949115 -0.020168867 -0.030778736
0000f0 7d 27 15 bd 11 9f c4 bd 32 6f ba 3d 80 aa cd bd
       -0.036414612 -0.09600652 0.0910324 -0.10042286
000100 42 cd 45 3d 95 89 aa 3d d9 57 69 bc 3f 94 a4 3d
       0.048291452 0.08327023 -0.014242136 0.08036088
000110 c6 5d 29 be 94 30 26 bd 93 e2 08 bd 11 31 bd 3d
       -0.16539678 -0.04057367 -0.033419203 0.09237874
000120 6e 49 16 bd 22 0a 9a 3d 79 71 29 3e 50 58 1f be
       -0.03669112 0.07521464 0.16547193 -0.15561032
000130 92 70 fc bc 50 b0 76 3e fb bb 0e be 2b cc 3c be
       -0.030815396 0.24090695 -0.13938896 -0.18437259
000140 06 4f 7d 3d 73 60 2a bc c7 a9 5d 3e 5a 51 37 be
       0.06184294 -0.010398972 0.21646796 -0.17902127
000150 ba 07 a0 bd 44 87 30 be da 21 eb bd bf 91 9d 3d
       -0.07813974 -0.172391 -0.11481066 0.076938145
000160 89 66 24 3e 2d b8 0f bd d5 10 0c 3c d8 64 39 be
       0.16054739 -0.035087753 0.008548935 -0.18104875
000170 e2 38 be 3d 6f 9d ec 3d 6b f9 3d bd 65 32 43 3d
       0.09288193 0.115534656 -0.04638044 0.04765548
000180 8f 08 53 bc 12 ba b8 bd ea 6b 82 bc 53 90 cd bc
       -0.0128804585 -0.09019865 -0.015920598 -0.025093233
000190 af 8b 6f bb 9a 92 c5 3c fc 0b a4 3d b3 c1 f5 bd
       -0.0036551764 0.024117757 0.08010098 -0.11999836
0001a0 79 1e 0f be ff 69 37 3d 3d 17 4f bc 9d f3 24 be
       -0.13976468 0.04477882 -0.012639818 -0.16108556
0001b0 7f 3d d8 3c 9d 4d b9 3e 50 ee 70 3d 7b e6 80 3e
       0.026396511 0.36192027 0.058821023 0.25175843
0001c0 0f f6 4b bd de 97 36 3e 8d f3 cb bc 71 70 43 3e
       -0.049795207 0.1783137 -0.024896407 0.19085862
0001d0 95 55 3e 3d e6 eb 76 3d 25 43 52 be 98 aa d3 3d
       0.046468336 0.060283564 -0.20533426 0.103352726
0001e0 fc c5 12 be 2c de 20 bc 78 27 19 be b3 59 63 3d
       -0.14333338 -0.009818595 -0.14956462 0.055505466
0001f0 9e 3a 51 be 69 40 c7 3d a8 c1 db bb 3f 79 eb 3d
       -0.20432517 0.09729082 -0.0067064352 0.11497735
000200 77 98 62 bc 2b 30 e8 3d 6e 28 cc 3d 27 b6 c9 3d
       -0.013830296 0.11337312 0.09968649 0.09849196
000210 69 94 9a bc 2c 4b d0 3d 19 81 28 bd ae 59 85 3d
       -0.018869596 0.10170588 -0.041138742 0.06511246
000220 8f ae e1 bd e1 4d 23 bd 10 d9 16 bd 86 3a b0 bd
       -0.110196225 -0.039869193 -0.0368281 -0.086049125
000230 06 cb e3 3c f0 a1 1a 3d f3 df ce 3d ab 0e d5 3c
       0.02780677 0.037752092 0.10101309 0.02600797
000240 7c 70 b5 3d 99 9c 09 3e 27 17 38 3e ac 6f 8c be
       0.08859345 0.13438644 0.17977582 -0.2742895
000250 48 94 72 bd 68 17 87 3e b8 65 54 3e 15 64 e1 3d
       -0.059223443 0.26385045 0.20741928 0.11005417
000260 b8 df 38 be e2 9e df bd 84 29 a1 bd 45 c3 b4 bc
       -0.18054092 -0.10918976 -0.078692466 -0.022065768
000270 01 55 a4 3e cf 11 eb bc 56 9c 73 3e 66 b5 27 be
       0.32096103 -0.028695015 0.23790106 -0.16377792
000280 6e 8c 27 be dd 3f 88 bd 26 80 eb bd 09 35 d8 bc
       -0.16362163 -0.06652806 -0.11499052 -0.026392477
000290 ff a4 b9 bd c2 71 8c 3d 79 1f bf bc 14 37 3c 3e
       -0.09064674 0.06857635 -0.023330437 0.18380386
0002a0 a3 68 b7 3c bd 94 c1 bd 9f b6 4b bd 45 85 0d 3d
       0.022388762 -0.09452198 -0.049734708 0.034550924
0002b0 4c 49 7e bc a5 e3 31 ba 9d ab 8b 3d 3a fe 27 3d
       -0.015520405 -0.0006785936 0.06819842 0.041013934
0002c0 22 e1 e0 bc fd d6 c6 bd af e8 19 3e ec 14 f9 3d
       -0.027451102 -0.097089745 0.15030168 0.12162194
0002d0 d8 9a 9e 3e 95 f0 5f bc fa 41 4d be 9e 88 43 3d
       0.3097751 -0.013668199 -0.200447 0.04773771
0002e0 5e 0b c0 bd bb a9 f5 3d 67 92 00 3e b2 47 ff 3d
       -0.09377168 0.11995264 0.12555848 0.12464847
0002f0 6a 4c 49 bc ed 82 d1 bd 8f 5c 72 3c 49 fc 81 3e
       -0.012286285 -0.1023005 0.0147925755 0.2538779
000300 64 8a 19 be d3 58 8d 3c ec 50 12 be fd 5d b6 be
       -0.14994198 0.017254269 -0.14288682 -0.35618582
000310 e4 77 30 bd 51 f6 46 3e 0a b4 10 be c3 88 2c 3d
       -0.043083087 0.194299 -0.1413118 0.042122614
000320 92 a0 a7 bc f3 6b 79 bc 48 df 3e 3d a2 20 2c bc
       -0.020462308 -0.015223491 0.046599656 -0.010505827
000330 b0 a5 08 be cc ec 2e 3d e0 89 61 3d 7c 4a 1d 3e
       -0.13344455 0.042706296 0.05506313 0.15360445
000340 2a c6 11 bc 5c fd 43 3c 72 e8 b5 3d d5 c0 a7 3b
       -0.008897344 0.011962261 0.08882226 0.005119423
000350 53 5c a8 3d 70 33 b8 bd c9 77 e2 bd 83 4b a3 bc
       0.082207344 -0.08994186 -0.110580035 -0.019933468
000360 ee c4 5f 3d 64 a5 a7 3e 9d da 8c 3e 3f 04 f8 bc
       0.054631166 0.3274337 0.2751054 -0.030275462
000370 25 f8 4c 3e 38 3e d6 bd bc d9 3c bd 3d 57 57 3e
       0.20016535 -0.10461086 -0.046106085 0.21029373
000380 df 81 d0 bc c0 fe aa be 77 5e 92 be 81 63 d4 bd
       -0.025452552 -0.33397484 -0.28587696 -0.10370541
000390 6e 8e 75 bd f3 0d 08 bd a6 47 9f bd b5 dc bd 3c
       -0.059950285 -0.033216428 -0.07777338 0.02317653
0003a0 ff 82 90 3d c6 2b 5b bd a3 c8 e6 3d e4 48 3d 3e
       0.070562355 -0.053508542 0.11268737 0.18484837
0003b0 d8 8c 1b bd 01 ac 05 3c 76 95 2c 3c 73 3d b0 3c
       -0.037976116 0.008158685 0.010533681 0.021513676
0003c0 ad 53 b7 3d fa a6 04 3e d9 4f 04 3e 94 2c 09 3e
       0.08951507 0.12954322 0.12921084 0.13395911
0003d0 c4 dc 54 3d 11 13 b9 bd b7 b6 07 3e 7f 2f c7 bd
       0.05196835 -0.0903684 0.13253294 -0.09725856
0003e0 6c be 2e be c7 3a 02 3e 13 16 ee 3d 77 d3 e8 bd
       -0.17064828 0.12717734 0.11625304 -0.11368459
0003f0 5a 58 7e 3e 38 d7 8e 3e 73 b6 13 be b1 a6 b2 bc
       0.24838391 0.27898574 -0.14425068 -0.021808

conv1.bias f4 [32]
000000 9e c1 bc ba b0 96 1a 3d fb e5 ca 3d 66 4e 6d 3c
       -0.0014400964 0.037741363 0.099071465 0.014484024
000010 75 b9 93 ba 9c b0 f8 bd 84 06 ab bd 77 45 d5 bc
       -0.001127048 -0.121430606 -0.08350852 -0.0260341
000020 bc 0d 0b be 33 ff c0 bc 21 8b 43 3e 59 be 17 3d
       -0.13579458 -0.023559188 0.19096042 0.037046764
000030 81 44 1e 3d 0a 48 a9 3d 8a 5b a7 bb 8c f9 ec bc
       0.03863955 0.082656935 -0.005107348 -0.028927587
000040 07 88 30 be dd bf aa bd 7d 0d 4a bd 47 1d 89 3e
       -0.1723939 -0.08337376 -0.04932927 0.2678015
000050 ff 6d a4 bd dd d1 56 be 51 14 7e 3d 54 06 20 bd
       -0.080287926 -0.20978494 0.062031094 -0.039068535
000060 32 9c 8e bd 24 5b ed 3d f6 ff ca bb 26 92 0f be
       -0.06963386 0.11589649 -0.0061950637 -0.14020595
000070 e5 15 be bd 1d 08 38 3c 51 94 ef 3d 72 3d 97 3c
       -0.0928152 0.011232403 0.11698211 0.018461917

conv2.weight f4 [64, 32, 3, 3]
000000 22 ec a4 3d 37 70 a9 3d c2 ab 4f 3d f8 07 72 3d
       0.08052851 0.082733564 0.05070091 0.05908963
000010 b9 1e 6a 3d 03 ce d9 3d b3 99 ac bd 17 11 a6 3c
       0.057158206 0.10634997 -0.08427753 0.020271821
000020 79 a7 d7 3d 02 ec cf bd a3 c4 ed bc 82 b8 e4 bd
       0.1052999 -0.10152437 -0.029024428 -0.111680046
000030 ad 3e 10 3d a7 ce 6e bd 7f 6f f5 bd 4a f1 fa bc
       0.035216022 -0.058302548 -0.11984157 -0.030632634
000040 a1 67 ac 3d fc b5 98 3b e7 de 0c be 94 aa 39 bd
       0.08418203 0.004660366 -0.13756905 -0.04532869
000050 c9 cc c3 bd a1 87 a1 bd 5b 29 96 bd 53 fd d8 bc
       -0.09560544 -0.07887197 -0.07332107 -0.026487982
000060 87 6e bb bd 92 96 6d bd 11 ae 60 bd 56 96 e3 3d
       -0.09151941 -0.058004923 -0.054853503 0.11112659
000070 86 fe 04 be c4 9d ff bd 8b cc d1 3d 07 a3 c5 bc
       -0.12987718 -0.12481263 0.102440916 -0.024125589
000080 a7 82 3b bc 56 6f 37 3d 22 cf a7 bd 5e c7 1b 3e
       -0.011444724 0.044783913 -0.08193804 0.15212771
000090 d8 06 a2 bd c1 8d 08 3d 2f 7d ac 3c e2 30 86 3d
       -0.079114616 0.033338312 0.021055786 0.065522924
0000a0 2e b3 0d be 59 52 3f 3c 7c 4d 22 3e 28 07 f2 3c
       -0.13837883 0.011677348 0.1584987 0.029544428
0000b0 06 a6 a2 3d 72 d1 02 3e 06 44 3e 3d 51 30 9b bd
       0.07941823 0.1277521 0.04645159 -0.07577575
0000c0 e0 88 2d 3e b8 40 4b 3e 9b 77 8a 3d b4 cd fb 3d
       0.16946745 0.19848907 0.06761094 0.12295094
0000d0 a3 e7 10 bc 4a e9 93 39 28 34 a1 bc 8e f2 04 3d
       -0.008844289 0.0002821184 -0.01967819 0.03245788
0000e0 ad d6 fd bd 60 82 c5 3d 73 c0 84 3d 1b 7f 94 bd
       -0.12394462 0.09644008 0.06482019 -0.07250806
0000f0 fd 2e 09 3e 09 38 6c 3d 93 e6 87 bd 4f 82 bf 3d
       0.13396831 0.057670627 -0.066357754 0.09351026
000100 95 9d 95 3d ac 3d c9 bd e4 3a 96 bc 5d 9c a3 3d
       0.07305447 -0.09826216 -0.018338628 0.07988808
000110 4d 3f 83 3c d2 86 b7 3d 25 cf bf bc fb 9e 0e bd
       0.016021395 0.08961262 -0.023414204 -0.034819584
000120 d2 22 97 bd 09 e4 1a bd bc ce 52 3d 22 6a 14 3c
       -0.07379688 -0.037815128 0.05146669 0.009058507
000130 c6 e0 a2 3c 73 18 4e be 66 4c 98 3d 79 3b ad bd
       0.019882571 -0.20126514 0.07436447 -0.08458609
000140 27 bf 07 3c 66 06 19 3d 5c c7 a0 3c f0 4f d7 bd
       0.00828532 0.037359618 0.019626312 -0.10513294
000150 aa 3f 8c 3d 01 a8 34 3d dc e9 72 3d b9 74 81 be
       0.068480805 0.044105534 0.059305057 -0.25284365
000160 17 53 19 3c df 98 b8 3d 38 d4 70 3c 10 01 28 b9
       0.009358189 0.09013533 0.014699034 -0.00016022124
000170 90 49 94 bc 3f 54 99 3d ed 2c 76 3c 99 23 8b bd
       -0.018101484 0.07486772 0.01502536 -0.06793899
000180 f2 6b 03 3d 6e 80 d2 3d ae 07 35 be 6a 52 e5 3d
       0.032085367 0.10278402 -0.17678711 0.1119736
000190 d0 fd d5 bd ff d9 e2 bd c0 52 fe 3d 96 9c 3d 3d
       -0.104488015 -0.11076736 0.12418127 0.04629191
0001a0 3d 18 9e bc 29 b7 18 3b 89 d9 38 bb c9 3d df 3d
       -0.019298667 0.0023302531 -0.0028205833 0.109004565
0001b0 4a 17 7b 3d e0 e8 96 3d 02 ad c4 3d f2 31 91 bc
       0.061301507 0.07368636 0.09603311 -0.017724011
0001c0 48 a8 02 3d ab 75 5e 3d 4d f2 93 bc e0 d4 63 bd
       0.031898767 0.054311436 -0.018059874 -0.055622935
0001d0 68 fa b3 bd 86 ab 36 bd 5f 6e e8 3c 67 f2 39 be
       -0.087879956 -0.04459717 0.028372942 -0.18158875
0001e0 f6 50 d5 bd 1a bc 01 be 54 73 18 bd 45 d8 e1 3c
       -0.10415833 -0.12669411 -0.03721936 0.027568946
0001f0 73 d0 ec bc b4 cb 9b bd 39 82 be bd 68 9b 14 b9
       -0.02890799 -0.07607213 -0.09302182 -0.00014172273
000200 7d 78 00 bc 8b e5 35 bd 5d 27 c4 3b f0 30 81 bd
       -0.007841227 -0.044408362 0.005986138 -0.06308162
000210 e8 0d 25 bd 09 3a 4b 3d 9e 30 c0 bd d3 45 a1 bd
       -0.040296465 0.049615894 -0.09384273 -0.07874646
000220 11 87 9d bd d4 bc 18 bd 6f 53 de 3d 4f 8f 5c bd
       -0.076917775 -0.037289456 0.108557574 -0.053847607
000230 1c fb 22 bd bb 71 05 bd 2a d9 27 be 68 52 9a bd
       -0.039790258 -0.032579165 -0.16391435 -0.07535249
000240 e5 64 ae bd 92 30 b5 3d 8c 7f 9e 3d b1 c1 03 3e
       -0.08515338 0.08847155 0.077391714 0.12866856
000250 32 96 e6 bd 9c d5 10 bd 0b 4b 65 3d 6f ca 57 3e
       -0.11259116 -0.035359964 0.05597977 0.21073316
000260 5c 60 8d bd 56 de 99 3d b9 d7 d3 bd 0c 5a c7 3c
       -0.06903145 0.0751311 -0.1034388 0.02433493
000270 68 c7 ca 3d 2d d3 a6 3d fd a1 20 3c fa 5c 87 3b
       0.09901315 0.08145747 0.009804246 0.0041309567
000280 a8 18 ae 3d 02 10 3d 3d 7e 6f be 3d 22 c2 18 3e
       0.085007966 0.046157844 0.09298609 0.14917806
000290 49 fa 32 3d 59 df 9e bd 98 63 5e 3d fd da a5 3d
       0.04369572 -0.07757444 0.0542942 0.08098409
0002a0 54 18 18 3d 58 0d dc 3d 2f ce eb bd 6c a7 d6 bd
       0.037132576 0.107447326 -0.11513936 -0.10481152
0002b0 ad fe d3 bb 15 74 23 3b 1c 96 dc 3d 99 f6 81 bd
       -0.0064695687 0.0024941016 0.107708186 -0.06345863
0002c0 7d f1 05 be 89 b8 5d 3d 75 ce 81 bd 77 62 3d bd
       -0.13080402 0.054131065 -0.06338207 -0.04623648
0002d0 44 b3 23 3d 8a 4f c6 3c 0d b4 23 3b 20 c3 2f ba
       0.039965883 0.024207849 0.0024979145 -0.0006704796
0002e0 c8 ac b8 3d 52 b2 8b bd ed fe 6e ba 45 76 2a 3e
       0.090173304 -0.06821121 -0.00091169664 0.16646679
0002f0 c6 eb ac bd 78 9c 09 3d 87 28 a4 3c c1 b8 35 3d
       -0.08443408 0.033596486 0.020038856 0.04436565
000300 53 4e c5 3c 2d 81 96 bd b5 71 3c 3b 36 73 ee 3d
       0.0240852 -0.07348857 0.0028754298 0.116430685
000310 48 22 1e 3c 40 fb c8 bc 08 7a a3 bd bb ec ca 3d
       0.009651728 -0.024533868 -0.0798226 0.09908434
000320 14 93 1d be a5 a3 92 3d 69 57 0a bd d5 4b 46 bc
       -0.15388137 0.07160119 -0.033774767 -0.012103041
000330 1b 1f 42 3d 3a 8a 1b bc b2 ee 0c be 3d 78 d9 bd
       0.047392946 -0.009493405 -0.1376293 -0.10618637
000340 44 e6 ac bc a9 7c 85 3d ce 4c 80 3d b6 5b 8a 3b
       -0.021105893 0.06517918 0.06264649 0.0042223586
000350 d4 e1 35 bd 69 63 ef bd ec f2 26 3e 28 26 e8 ba
       -0.04440482 -0.11688883 0.16303605 -0.0017711567
000360 1c 4d 21 bd c6 08 49 3d 4f 55 48 bd c3 b5 4e bd
       -0.039380178 0.049080633 -0.04890948 -0.05046631
000370 9e e4 80 3d f1 c3 41 bc 50 8b a6 3d a0 a0 9c 3d
       0.06293605 -0.011826501 0.081320405 0.07647824
000380 db ce 8d 3d 52 a8 d9 bd 9e e4 c8 bc ca 23 ae bd
       0.0692422 -0.10627808 -0.024523076 -0.0850292
000390 03 30 8f 3c 53 ca a3 3d 90 44 b9 3d f2 da ee b9
       0.017478948 0.07997575 0.090462804 -0.00045558024
0003a0 ee e8 25 be 6d 96 a3 bc d2 55 d1 bc 2d b0 c9 3d
       -0.16202137 -0.01996919 -0.025553618 0.09848056
0003b0 3a 66 26 be 1c f9 13 3d b2 80 83 bc 7f 07 51 3d
       -0.16249934 0.03612624 -0.016052578 0.05103254
0003c0 f1 c2 0e 3d 2d e9 28 bd e9 19 8d bd 96 9e 14 3c
       0.03485388 -0.041238 -0.068897076 0.009071013
0003d0 b0 a3 08 bd 8e 95 97 3d 1a 0e 10 bd f7 71 80 bd
       -0.03335923 0.07401572 -0.0351697 -0.06271737
0003e0 10 fa 80 bd 74 8d 47 3d 44 3e 48 3d 75 8c ae bd
       -0.06297696 0.048718885 0.048887506 -0.08522884
0003f0 25 0e 03 be b9 c1 91 3c f7 02 6e 3d d4 8d 29 bd
       -0.12798364 0.01779257 0.058108296 -0.041395023

conv2.bias f4 [64]
000000 12 c7 1f bd 8c 0b 9b bc 82 9b d4 3c fa 91 45 be
       -0.039008208 -0.018926404 0.025953058 -0.19293967
000010 e5 1f 9a bd 92 38 95 bd 05 32 cc bc b4 d8 e0 bc
       -0.07525615 -0.072861806 -0.024926195 -0.027447082
000020 52 fb aa 3d 28 92 fb bd 1e ca 16 3d fe 23 d6 3b
       0.08348717 -0.122837365 0.036813848 0.0065350523
000030 8f fc e2 3b e9 14 6d 3d 71 7d 1e bd 39 66 8f bc
       0.00692708 0.05788127 -0.03869385 -0.017504798
000040 dc 37 4c bd d2 9b 07 3e f4 75 ec bd f8 79 31 be
       -0.04985796 0.13243034 -0.11545935 -0.17331684
000050 61 32 44 3e 7d 6f 4e bd 61 b2 2d 3b 93 90 15 be
       0.19159843 -0.050399292 0.0026504027 -0.14605932
000060 21 4b 29 3d d8 63 59 3d aa 64 97 3b 94 b9 22 bd
       0.041331414 0.053073734 0.0046201544 -0.039727762
000070 b4 fa c7 3d 3d d3 14 be 1f 52 55 bd 41 81 fa 3d
       0.09764615 -0.14533706 -0.05208027 0.122316845
000080 04 2b 25 be cd e2 94 3d fa cd e1 ba b2 11 a7 3d
       -0.1612969 0.07269821 -0.0017227523 0.08157672
000090 ca 78 89 3c 47 75 bc bb e3 60 bf bd f2 ab 70 bd
       0.01678123 -0.0057512852 -0.093446516 -0.05875773
0000a0 35 c5 2b 3e a7 3f 1c be e4 7b 0d 3d f4 18 2b be
       0.16774447 -0.15258656 0.03454198 -0.16708738
0000b0 65 19 57 3d b4 98 50 bc e8 72 d3 bb 65 7a 2e be
       0.052514452 -0.01273172 -0.006452907 -0.17038877
0000c0 72 78 cb bb e0 00 89 3b 41 b3 c1 bd d9 ff 65 bd
       -0.0062094266 0.0041810125 -0.09458018 -0.0561522
0000d0 8f 29 ce bd 6e cf a6 ba 32 c3 b6 3d a9 11 0f be
       -0.100665204 -0.0012726614 0.08923949 -0.1397158
0000e0 cb 35 33 be 40 17 43 3c a9 fe c1 3c e2 0d dd bc
       -0.17500989 0.011907399 0.023681002 -0.026984159
0000f0 f0 e8 f4 bc 17 44 02 3d 6f 4a 39 bc ef 66 62 3d
       -0.02989623 0.031803217 -0.01130925 0.055273946

conv3.weight f4 [128, 64, 3, 3]
000000 26 53 33 3d 10 52 2b bd 93 ee 99 bd 48 87 0a 3d
       0.04378047 -0.041826308 -0.075162075 0.03382042
000010 59 18 66 bd 7d 60 62 bd 14 20 35 be 40 14 32 3d
       -0.056175563 -0.0552678 -0.17688018 0.043476343
000020 43 47 eb bb 6a be b7 bd 1c 1a d6 bd ea 41 6f 3d
       -0.007180126 -0.089718655 -0.10454199 0.05841247
000030 69 0a 18 bd 10 81 c1 bc 1f 74 fc 3b a1 97 61 3b
       -0.037119303 -0.023621112 0.0077042724 0.0034422653
000040 5c 90 1d 3d 18 f8 bb 3c 58 2b a0 bc 5f 2b 4a b9
       0.03846775 0.022945449 -0.019551918 -0.00019280378
000050 9f d2 11 be 0f f1 e4 bd cf 41 59 bd d7 9b 8d bc
       -0.14240502 -0.11178791 -0.053041276 -0.017286224
000060 2a 1b 5c bd 9a c1 cd bd d5 97 b4 3c b7 dc 39 be
       -0.053736843 -0.10046692 0.022045055 -0.18150602
000070 28 f3 b6 bc 07 9e c7 3c 6c 0b ad 3d 1d 01 7a 3d
       -0.022332743 0.024367345 0.08449444 0.061036218
000080 35 08 f4 bb a2 97 be bd ab 25 02 3d b3 6f c5 3d
       -0.0074472674 -0.093062654 0.031774204 0.096404456
000090 37 34 c6 3c 32 b0 6b 3d 78 bd 8c 3d 5e 76 03 3e
       0.02419482 0.05754108 0.06872076 0.12838122
0000a0 c1 46 67 3d f7 63 5e 3d 0e c5 93 bc 00 2b b7 3d
       0.05646396 0.054294553 -0.018038299 0.089437485
0000b0 1a a9 04 3c 44 43 00 bc e6 ee 83 bd 2f 2b fc bd
       0.008096958 -0.007828537 -0.06442051 -0.12312924
0000c0 6a 4f 55 3d a2 cc 67 bc 56 5d 98 bd ea 38 cb bd
       0.05207769 -0.014147909 -0.074396774 -0.09922965
0000d0 a6 43 ad bc e4 79 11 3d da 54 ec 3c 8d a0 ad bd
       -0.021150421 0.035516635 0.028849054 -0.08477888
0000e0 f7 0d 9d bd 4d a8 90 3d 1a d3 21 bd e0 25 fe bb
       -0.07668679 0.07063351 -0.039507963 -0.00775598
0000f0 c9 4a 0d 3c 21 43 2c 3d 4d cf db 3d b9 c8 84 3d
       0.008623787 0.042056207 0.10732899 0.06483597
000100 28 c0 38 bb bc 6c 6d 3d 20 fc 57 bd 21 2a d8 bd
       -0.0028190706 0.057965025 -0.05273068 -0.105549105
000110 49 df 24 3d 6f 4f 00 3d c7 60 97 3d 7d bd 35 bd
       0.040252004 0.031325754 0.07391506 -0.044370163
000120 f4 f7 9c bd 32 99 83 bd 1f 4e 06 bd c9 3e ce bd
       -0.07664481 -0.06425704 -0.032789346 -0.10070569
000130 c1 6f 28 bd 82 44 2b 3e b6 92 c2 3c 45 cf 16 bc
       -0.0411222 0.16725352 0.023751598 -0.00920469
000140 55 22 1d 3c 5a 13 3f bd 62 c0 82 3b e1 8d df bc
       0.009590705 -0.046649314 0.003990219 -0.027289333
000150 e3 47 1c bd 91 3e 91 3d de ab e8 3c ef e4 fa bd
       -0.038154494 0.07092012 0.028402265 -0.12250697
000160 9a 3c a6 bb c7 5c 51 bc 11 a1 57 3a c4 7e be bc
       -0.0050731422 -0.0127784675 0.00082256 -0.023253806
000170 80 aa 91 3d 9f 80 84 bd e9 86 07 3d d7 0e 06 be
       0.071125984 -0.06469845 0.033087645 -0.13091598
000180 21 33 97 3d 24 0b d6 3d 57 90 bc bc 79 62 f3 3c
       0.07382799 0.10451344 -0.023018045 0.029710041
000190 5e cb 19 bd 05 2c 8f 3d 28 ab 71 3c c6 b3 ad 3d
       -0.03754746 0.06990818 0.0147502795 0.08481555
0001a0 83 56 98 bc 8a 19 59 bd e0 75 89 3c 3b 4a 52 3c
       -0.01859594 -0.05300287 0.01677984 0.012835081
0001b0 91 eb d2 bd 45 6f b4 3c 46 93 cd 3d ae 11 f5 3c
       -0.10298837 0.022025714 0.10037856 0.029915657
0001c0 18 d7 97 bd b4 b2 aa bc ff 99 0a 3d a0 4b 71 3c
       -0.07414073 -0.020837165 0.03383827 0.014727503
0001d0 bc e0 53 3d 03 a1 94 bd 19 22 c4 ba ed 2d 94 3c
       0.051727995 -0.07257273 -0.0014963775 0.018088305
0001e0 36 2b 0e be e2 46 2e 3c b3 77 27 bc 41 0f 04 bd
       -0.13883671 0.010637017 -0.01022141 -0.03224111
0001f0 9b d7 87 3d b1 92 80 bd af 27 87 bd 31 50 b5 bd
       0.0663292 -0.06277979 -0.06599366 -0.08853186
000200 c8 5f e2 bc 8b 3d 5b 3b ac 12 5b bd e6 36 3d 3d
       -0.027633563 0.003345343 -0.053484604 0.046194933
000210 43 12 97 3d 58 25 a3 bd 20 07 1a 3d 16 a9 94 3a
       0.0737653 -0.07966107 0.03760445 0.0011341895
000220 dc 6a 26 bd c0 f2 02 be 73 ca 0f be a6 34 4f bd
       -0.040629253 -0.12787914 -0.14042072 -0.05058732
000230 f5 e8 5e bd 8d 56 9f bd 59 a6 dc bd e0 b3 27 3c
       -0.054421384 -0.0778018 -0.10773916 0.010235757
000240 b8 56 0b 3d 38 83 ea bd 13 9b 7d bd 94 aa 1e bd
       0.03401825 -0.11450809 -0.06191547 -0.038736895
000250 60 34 3c 3d 1d 31 91 bb 9a c2 2e bb e9 2d 04 be
       0.045948386 -0.0044309036 -0.0026666285 -0.12908138
000260 a8 fa e3 3d 2d 9b 08 bc ae 34 0d bd 1d 81 cc 3d
       0.11131793 -0.008337778 -0.034474067 0.09985564
000270 74 40 50 bb 81 62 49 3d 46 54 52 3e fb 79 db 3d
       -0.0031776698 0.049166206 0.2053996 0.10716625
000280 83 fd 26 bd f6 8d 51 3d 2c 88 b1 3d bc c0 e7 bd
       -0.04076911 0.051160775 0.08668551 -0.11316058
000290 dd da e8 bd 24 11 76 3c 47 66 5b 3c 91 53 9a 3d
       -0.1136987 0.015018735 0.013391084 0.0753547
0002a0 eb 8c a0 bd a6 c7 c5 bd 18 a2 89 3d a0 9d c6 3c
       -0.07839378 -0.096572205 0.0672037 0.024245083
0002b0 43 5e 54 bd 53 58 01 bb 42 e2 14 3c 36 29 57 bd
       -0.051847707 -0.0019736483 0.009087147 -0.052529536
0002c0 f6 c2 a6 3c 0f e8 94 3c 7a 76 74 bd 83 01 1f bc
       0.020356636 0.01817706 -0.0596833 -0.00970495
0002d0 ea 32 21 3d 69 d3 87 bd d4 ae 84 bc 53 67 a8 3c
       0.039355196 -0.0663212 -0.016196646 0.020557081
0002e0 9a f2 ae bd 2f e8 e3 3d 2e 81 c2 3d 79 47 f9 bc
       -0.08542366 0.1112827 0.09497295 -0.030429589
0002f0 91 d4 f1 3c ae 7c 5a 3d b9 05 a7 3c d5 aa ef 3c
       0.029520305 0.05334156 0.020388471 0.029256264
000300 af 93 c6 bd f0 ba db 3a 30 69 c2 bd 3f 33 07 bd
       -0.09696137 0.0016764086 -0.09492719 -0.033007856
000310 a3 51 b8 bc 61 76 35 bd 2e 2d c9 bd 42 58 56 bd
       -0.022499865 -0.044302348 -0.098230705 -0.052330263
000320 c6 9f c8 bd 90 f0 b8 bd fa 65 b9 bb 44 c9 d5 bd
       -0.09796099 -0.09030259 -0.0056579085 -0.10438779
000330 0e 0a ba bb 6b 8f 7c 3d 64 2b f7 bc 56 46 02 3d
       -0.005677468 0.06166021 -0.030172057 0.03180536
000340 a8 67 d0 bc 52 b7 10 bd cf fa e7 bd 96 26 a9 3d
       -0.025440052 -0.035331078 -0.11327135 0.08259313
000350 2b 48 fe bb 81 be 99 bd 11 f7 91 3d 77 b5 9a 3c
       -0.007760068 -0.07507039 0.07127202 0.018885357
000360 42 7f 9f bc 9c 43 39 3d 80 d9 b1 3a a6 51 dc 3d
       -0.019469861 0.045230493 0.0013568848 0.10757761
000370 dd 75 b4 bc 1c e2 9d 3d 57 df 0e bd 88 9a 6b 3d
       -0.022028858 0.077091426 -0.034880962 0.05752042
000380 88 65 06 bd f2 db 80 bd 76 05 cc bd ab 3c cc 3d
       -0.03281167 -0.06291951 -0.09961979 0.09972509
000390 6c 83 4e bd 59 c3 e1 bd ef 25 1b 3d ad 8a 39 bd
       -0.050418302 -0.11023588 0.037877973 -0.045298267
0003a0 e7 d5 24 bd d9 ef b6 3d d4 b0 25 3d 13 fd 16 3d
       -0.040243056 0.08932466 0.04045184 0.036862444
0003b0 cc a2 89 bc cb 56 f8 bd db 28 94 3d 92 08 c6 bc
       -0.01680126 -0.121259294 0.07234355 -0.024174009
0003c0 7b 1d c4 bd ed db c0 bd 7e 04 34 3b ee 0f 89 3c
       -0.095759355 -0.094169475 0.0027468498 0.016731229
0003d0 3e 6b 8f 3d 95 a4 8a bb 32 ec ed 3c 97 4b 47 3d
       0.07002877 -0.0042310455 0.02904329 0.048656072
0003e0 be 0a c9 bd 01 4e 16 3b 9f 48 08 3e b6 de 8f bd
       -0.09816502 0.0022934678 0.13308953 -0.070249006
0003f0 31 0e 77 3d 4c 33 84 bd 17 1c 15 be b0 ae 3a bd
       0.06031627 -0.064550966 -0.14561497 -0.04557675

conv3.bias f4 [128]
000000 e6 86 86 3d 56 0b 38 be 7c ee b5 3d 82 88 74 bc
       0.065686986 -0.17973074 0.08883378 -0.014925124
000010 51 1e 0a 3d c6 3a 98 3c c5 44 9a 3d 7e 68 b9 bc
       0.03372032 0.018582713 0.07532648 -0.022632834
000020 76 19 9c bd 12 70 22 3c 59 10 6f bc 71 5c 6a bd
       -0.07622044 0.009914415 -0.0145913 -0.057217065
000030 b3 6f 23 3e cd 88 c5 bc 2f 46 fd bd 5a 13 70 3d
       0.15960579 -0.024113083 -0.12366902 0.058612205
000040 19 92 93 3d 8d b6 a3 3b f2 36 47 3e 8b fb f7 3d
       0.072056 0.004996127 0.19454554 0.12108525
000050 ee 9e e7 bd ff 11 05 3d c6 9d 73 3d d5 c4 87 3d
       -0.1130961 0.032487866 0.059476636 0.066293396
000060 e4 c1 c5 3d 52 9b ac 3d 50 81 0f 3e ee b6 d0 3c
       0.09656122 0.084280625 0.14014173 0.025477853
000070 90 ae ea 3d 9e 9b c1 3d 89 2d fb bd fd e2 8e 3d
       0.114590764 0.0945351 -0.122645445 0.06976888
000080 22 ea 96 3a 3a 8b 3e 3d 53 67 2c be ab d7 bd bd
       0.0011513869 0.046519496 -0.1683629 -0.09269651
000090 9d b9 3a bd ab 55 60 3d 59 0a 8a bd e9 56 5f bd
       -0.04558717 0.0547692 -0.06740255 -0.054526243
0000a0 17 c5 b3 3d 0a 06 b2 bc 81 8c 74 3e 09 6a 9b bc
       0.08777826 -0.021731395 0.23881723 -0.01897146
0000b0 07 85 a3 3d cb 30 07 be a7 97 ab bd 28 d3 1b 3d
       0.07984357 -0.13202207 -0.08378535 0.03804317
0000c0 c4 27 c2 bd 95 59 27 3d 2f ea d0 3b d5 2e 07 bc
       -0.09480241 0.040856916 0.006375573 -0.008250912
0000d0 8d 5b 7d bc 8e 04 08 3e b3 ea 67 bd 9d b0 13 3d
       -0.015463722 0.13282987 -0.05662031 0.036057103
0000e0 80 dd 7a 3d 9b 05 e8 bd aa be 05 bd 02 72 72 3d
       0.061246395 -0.11329194 -0.032652535 0.059190758
0000f0 aa c2 dd bd 78 4d ec 3c 60 7f 59 3e 04 36 d1 bc
       -0.10828145 0.028845534 0.21239996 -0.025538452
000100 e6 a6 c9 bc a2 c0 2d 3d 80 2b d6 bd 97 7a c7 3d
       -0.024615716 0.042420037 -0.10457516 0.09740179
000110 d5 9c 1e bd 24 7e 77 bd 5d 10 3e bc df 8d 1c 3e
       -0.038723785 -0.06042303 -0.011600581 0.15288495
000120 dd 7e f9 3c 54 c8 0b 3e e0 77 8a bd 80 e3 83 3c
       0.030456001 0.13650638 -0.067611456 0.016099691
000130 97 0a 0d bc f0 d2 1d be a3 63 80 be fe 45 4e 3e
       -0.008608482 -0.15412498 -0.25076017 0.20143887
000140 08 59 36 be a8 b6 8c 3d 5b d9 f2 bc 1c e4 23 be
       -0.178074 0.068707764 -0.029644659 -0.16004986
000150 4c e3 4d 3e 78 11 08 3e 1e 84 0c bd a7 69 48 3d
       0.20106238 0.13287914 -0.034305684 0.048928883
000160 5c c9 53 3d 65 bb 20 bd 1a ca fa 3d 93 26 96 3c
       0.051705703 -0.039241213 0.12245579 0.01832894
000170 c0 81 8c 3c df 56 58 3c b8 c3 39 3d a5 a4 0a 3e
       0.017151713 0.013204305 0.045352668 0.1353937
000180 8d c1 c1 3c b0 99 0f 3e 69 8f 96 3c e4 49 a1 3d
       0.023651863 0.14023471 0.01837893 0.07875422
000190 67 ff 0d bd 43 b3 ce 3d db 93 44 3e 3d 13 03 be
       -0.0346674 0.10092785 0.19197027 -0.12800308
0001a0 a6 26 ed 3d d5 2e e8 3d fc 36 45 3e 8f 84 11 be
       0.11579637 0.113370575 0.19259256 -0.14210723
0001b0 c3 cc 52 3d 0e c2 d3 bd 5f f6 32 3d 6a 4d 57 3e
       0.051464807 -0.10339747 0.04369199 0.21025625
0001c0 3f be 3a 3e ba 60 81 3d eb ee d0 3d 55 37 9c bd
       0.18236636 0.06317277 0.1020182 -0.07627741
0001d0 f7 31 50 3e 84 d6 94 3d e3 19 17 bd a5 98 48 bd
       0.2033156 0.07267478 -0.036889922 -0.0489737
0001e0 f3 aa 06 bd ba 2b 99 3d 89 4e 1f 3e 0b 4d d6 bd
       -0.032877874 0.07479043 0.15557303 -0.104639135
0001f0 e1 0a b8 3d a1 98 b7 bb 72 e3 8e 3c be ee 81 bd
       0.0898645 -0.0056029116 0.017442439 -0.063443646

resblock1.conv1.weight f4 [32, 32, 3, 3]
000000 e6 d3 04 bc f1 21 68 bd 93 58 64 3d f6 4a f3 bd
       -0.008107161 -0.056672994 0.055748533 -0.11879532
000010 66 77 f9 bc 92 79 4a 3d 86 ac 21 bd dd 39 9d 3c
       -0.030452441 0.049432345 -0.03947117 0.01919263
000020 87 79 6d 3d 3e b8 11 be 2a 18 a9 bd 54 aa 0a 3e
       0.057977226 -0.14230439 -0.08256562 0.13541538
000030 22 5a 91 3d 64 47 25 3d 76 0f eb bd c7 fb b0 bd
       0.070972696 0.040351287 -0.11477558 -0.08641773
000040 6d 68 34 3d 46 61 4b 3d f5 37 b9 bd 70 21 c9 bd
       0.0440449 0.049653314 -0.09043876 -0.09820831
000050 dd 9d 88 3d 8f 03 42 3e 46 ef 3c bd c5 34 4e 3d
       0.06670735 0.1894667 -0.046126626 0.050343294
000060 0e 84 84 bd da 3e 9a bb 55 9a c0 bc 92 aa 25 b9
       -0.064705 -0.0047071995 -0.023511091 -0.00015799169
000070 2c a0 0c 3d b7 27 38 bd 8c ad fd bd 20 37 8c bb
       0.03433244 -0.04495975 -0.12386617 -0.0042790323
000080 65 c5 32 3d ac ff fb 3d cc c9 02 bd bd 1d 21 3d
       0.04364528 0.12304625 -0.03193073 0.039335
000090 e7 ce bf bc 6e f7 40 bd fb d0 6c 3d f2 a0 8b bd
       -0.023414088 -0.047110967 0.057816487 -0.06817807
0000a0 2e 05 d4 3c 75 c9 e7 3c 62 fa a2 3c ad 66 0a 3d
       0.025881376 0.028294304 0.019894782 0.033789326
0000b0 27 3c a4 3d e7 c9 91 bd 31 c5 a1 3d 47 37 7a 3d
       0.08019286 -0.07118588 0.078989394 0.061087873
0000c0 4e 65 db bc 9b 43 28 3d bc 9e 85 bd c7 a6 fe bb
       -0.026781704 0.0410801 -0.06524417 -0.0077713463
0000d0 f1 7f b0 3d 34 8a 11 3d 28 8d 2b be 7a 74 60 be
       0.08618153 0.03553219 -0.16753066 -0.21919432
0000e0 c7 b6 39 bd 59 60 26 bd b7 5b fe bc 65 fd c3 bd
       -0.045340326 -0.040619228 -0.031049592 -0.095698155
0000f0 7c 35 ff 3c bc 2b 66 bd 64 bb b7 bd d5 90 8b bd
       0.031153433 -0.056194052 -0.08971289 -0.06814734
000100 47 ea ce 3c 52 b6 ac bd 67 b2 66 bd 0f a0 93 3d
       0.025258197 -0.08433212 -0.05632248 0.07208263
000110 dc 72 c1 3d 98 5c fb bd 63 5d 99 bd c9 bb e0 3d
       0.09445736 -0.1227352 -0.07488515 0.10973317
000120 a0 7b 47 bc fc ab 9b 3c 2b 1f 25 3e 77 77 cd bd
       -0.012175471 0.019002907 0.16125171 -0.10032552
000130 5a 0e be bc cb 5d 05 be c8 8b a6 3c b5 fb f6 3d
       -0.023200203 -0.1302406 0.020330325 0.12059728
000140 d3 38 06 3e 8f c2 a6 bc f9 75 42 3d fc 83 0a 3e
       0.13107614 -0.020356445 0.04747579 0.1352691
000150 f6 91 c7 3c 38 4a 7c 3d 25 61 e1 bb 29 e3 c0 3d
       0.024361592 0.061594218 -0.0068780356 0.09418327
000160 db b3 e6 bd 2a 85 1b 3d 3c 8d c8 bd 69 88 89 bd
       -0.112647735 0.037968792 -0.09792563 -0.06715471
000170 a8 ef 20 be 3e 19 ca bd 85 6a a4 bc d4 99 b6 bc
       -0.15716422 -0.09868096 -0.020070324 -0.022290148
000180 27 1c 5a 3d 7f ef 5d bd c5 dc b4 bd cd d5 bd bc
       0.053249504 -0.05418348 -0.08831171 -0.023173237
000190 84 c9 c9 bd 4c 57 ec bd b0 1b e5 bc 83 34 03 3d
       -0.09852889 -0.11540088 -0.027967304 0.0320325
0001a0 da dd bd 3d 6f a1 73 bd 1e 6f da bd 97 51 99 bc
       0.092708305 -0.059480127 -0.10665725 -0.018715663
0001b0 43 61 13 3d 28 42 34 3d ce 3d 84 3a c1 96 22 bd
       0.035981428 0.044008404 0.001008922 -0.03969455
0001c0 ab dd f8 bc 5a 44 e4 3d 3e 7b 1f be 2b ca c2 bd
       -0.030379137 0.111458495 -0.15574357 -0.09511217
0001d0 12 30 77 3d 22 94 7d bd 67 85 22 3d 1b b7 e2 3d
       0.060348578 -0.06190885 0.039678004 0.11070081
0001e0 89 1c cf 3c 41 a3 3f be 8e da 01 be a5 aa 89 3d
       0.025282161 -0.1871462 -0.12681028 0.06722001
0001f0 19 12 9d bc b9 5c 90 3d 53 a3 0e 3e 46 03 3d 3b
       -0.019173669 0.070489354 0.13929491 0.0028841062
000200 ce 26 d5 3d 17 da 57 bd 00 cf 2f be 25 5a 13 3d
       0.10407792 -0.05269822 -0.17168808 0.03597464
000210 cc 81 71 3d 82 2b 5b be 89 37 e6 bc 26 02 91 bd
       0.058961675 -0.21403316 -0.028102653 -0.07080488
000220 32 34 19 3e a3 11 a0 bd fc 72 cd bc ec 23 8c 3d
       0.14961317 -0.07815864 -0.025079243 0.06842789
000230 bd c0 00 3d c1 04 84 bd 05 70 b0 3c f3 06 37 3c
       0.03143381 -0.06446219 0.02153779 0.01117109
000240 32 09 9c bd 95 84 87 bd 1a 23 d6 3d 61 75 9c bd
       -0.07618941 -0.06617085 0.10455914 -0.07639576
000250 6a 6e ea 3b f0 35 f5 bc 6e 54 95 bd 46 92 ea 3c
       0.0071542757 -0.029932946 -0.07291494 0.028634202
000260 1e 78 be 3c a0 aa 7b 3d ce f0 90 3d 9b 3c 59 be
       0.023250636 0.061442018 0.0707718 -0.21214525
000270 37 de b5 bd e3 24 29 3d 93 ae af bc f0 2f a4 3d
       -0.08880275 0.041294944 -0.021445548 0.08016956
000280 76 d2 09 bd e6 63 d1 3c 99 2e af 38 dc aa 19 3d
       -0.033647977 0.02556033 8.35333e-05 0.03751646
000290 7d 69 e2 bd 88 50 c6 3d d2 11 b7 bd c5 36 d9 3d
       -0.110552765 0.09683329 -0.08938946 0.106061496
0002a0 49 73 83 bb 2c 30 22 3d e2 b3 15 bc 81 95 12 bc
       -0.004011546 0.03959672 -0.009137126 -0.008946777
0002b0 8b 6d 3c 3e 92 67 76 bb 61 1e 55 3d 1a 75 a3 bd
       0.18401162 -0.0037598354 0.052030925 -0.0798132
0002c0 ee 2a 3c 3c 25 aa 40 bd 24 7d f6 bc ea 68 b6 3d
       0.011484845 -0.047037262 -0.030088969 0.089067295
0002d0 b2 fe d0 bc 5c 2c 7e bd 34 9d c3 bd c3 53 6e bd
       -0.025512073 -0.062054023 -0.095514685 -0.05818535
0002e0 6d a0 66 bc 32 ac 35 3d 34 97 22 3d f4 a4 d1 3c
       -0.014076334 0.04435367 0.03969498 0.025591351
0002f0 09 62 04 bc 43 e4 dc bd 88 a3 99 3b 5f 78 e8 3c
       -0.008080014 -0.10785725 0.004688684 0.02837771
000300 51 2d b0 39 a3 e5 6e bc 9f c1 25 bc d6 79 f0 bb
       0.000336031 -0.014581117 -0.010116964 -0.0073387427
000310 f3 84 4a bd 77 74 06 bd 6c 6a 83 3d 19 05 9c bc
       -0.049443197 -0.032825913 0.06416783 -0.0190454
000320 d5 36 d5 3d a4 21 c5 3b 16 4b 4d 3d 36 4d 1c 3b
       0.10410849 0.006015973 0.050120436 0.0023849732
000330 73 81 5c be f0 a6 2f bd 03 9e a7 bc 2c ab 34 3e
       -0.21533756 -0.042883813 -0.020461088 0.17643422
000340 f4 bb a4 bc f1 f0 fd 3c ff 6b 07 3e c3 64 aa bd
       -0.020109154 0.030998679 0.13224791 -0.0832
000350 5d 7d b6 3c 12 c2 82 bd 05 80 71 bd a8 7c e5 bd
       0.022276575 -0.06384672 -0.05895998 -0.11205417
000360 7e 88 0e 3d 77 24 61 3d f1 88 68 3d e1 61 13 3d
       0.034798138 0.054966416 0.056771223 0.035982016
000370 3d 68 27 bd 1b 1c bf 3d cd d2 73 3d 4a e1 81 bc
       -0.040870894 0.093315326 0.059527207 -0.015854497
000380 05 17 f5 3c 0b 76 59 bd 2a ca b7 bd 0d ef 1c bd
       0.029918203 -0.05309109 -0.089741066 -0.038313914
000390 58 6b 88 bd 5a fc 34 3d d4 83 50 bd 27 68 23 3d
       -0.06661099 0.044185974 -0.05090697 0.03989425
0003a0 52 fa 86 3b 46 77 86 bd 15 b9 c6 bd bb 7a 13 3e
       0.004119196 -0.06565718 -0.0970327 0.14402287
0003b0 6d 9f 0b 3c 0e aa 91 bd b7 10 0b bd b6 ba 03 3d
       0.008521897 -0.071125135 -0.033951487 0.032160483
0003c0 f2 38 d4 bc c7 31 b0 3d ae 32 47 3e 4e ae 89 be
       -0.02590606 0.08603244 0.19452927 -0.26890796
0003d0 3b 52 63 3e 1d 36 08 3e 74 66 a0 3d 12 ae 01 bd
       0.22199337 0.13301893 0.078320414 -0.031660147
0003e0 ab 31 51 3d 63 b8 70 bd 6f 04 5a 3d 06 c7 4d 3e
       0.051072758 -0.058769595 0.053226884 0.20095453
0003f0 70 cc 3a be 63 0c 20 bd 00 1a 35 bd 0a 65 df bd
       -0.18242049 -0.039074313 -0.04421425 -0.109079435

resblock1.conv2.weight f4 [32, 32, 3, 3]
000000 09 99 2d bd 91 79 e7 3b f8 88 91 bd 07 ee 19 be
       -0.042382274 0.0070640524 -0.07106203 -0.15032206
000010 30 02 1b be 31 d6 1d 3e 55 a9 6e 3c c2 89 03 bb
       -0.15137553 0.15413739 0.014566739 -0.0020071124
000020 26 63 1d bd 4a 81 16 bc 6e f3 9a 3c 37 24 c8 3c
       -0.038424633 -0.009186098 0.018914904 0.024431331
000030 51 77 2e be e0 22 a3 3c 5a a3 59 3d 45 bf 57 bc
       -0.17037703 0.01991409 0.0531343 -0.013168161
000040 85 16 5e bd ad 7a 2e bd ea f0 c8 3d e0 31 c0 bd
       -0.054220695 -0.04259746 0.09811576 -0.09384513
000050 37 17 b3 3d 49 ac 90 3d 29 27 94 bd ae 35 3d bd
       0.08744662 0.07064111 -0.07234032 -0.04619377
000060 ec 38 1c 3c d0 7b 85 bd 54 c5 ae bd 5b 44 ed bc
       0.009535056 -0.06517756 -0.08533731 -0.028963258
000070 26 0e 9f 3d 2c aa 3a bb 18 7e f8 3d ee 14 0c be
       0.077663705 -0.0028482778 0.121334255 -0.13679859
000080 21 7d 08 bc 59 86 a1 bd 09 a9 23 bd 1a a7 a6 3c
       -0.008330614 -0.07886953 -0.039956126 0.020343352
000090 81 02 43 3d a6 64 0d 3d f2 b5 a3 bd 02 68 eb 3d
       0.04760981 0.034519814 -0.07993688 0.11494447
0000a0 1f fd 7d 3d 26 e1 33 bd 32 20 0a 3d 9a 66 26 bd
       0.062008973 -0.04391589 0.03372211 -0.040625192
0000b0 61 fc cc 3c 53 ff 18 be 96 fa 94 3c 1d b2 13 be
       0.025022687 -0.14941148 0.018185895 -0.14423414
0000c0 51 e7 64 bd db c6 0b bd ff 09 8e bc 01 af f7 3d
       -0.055884663 -0.03412519 -0.01733875 0.12093926
0000d0 55 43 c7 bc 40 c4 0e be e5 9b b0 3d bf 65 9d bd
       -0.024324099 -0.13942051 0.086234845 -0.07685422
0000e0 7d 83 1d 3e 79 90 78 bd 6d c2 8f ba 90 09 a7 bc
       0.1538219 -0.060684655 -0.0010967978 -0.020390302
0000f0 5e 17 e5 bb b7 f3 a3 bd 2f 18 92 3d 4d dd 71 3c
       -0.006991311 -0.08005469 0.07133519 0.014762235
000100 8d e1 27 3c b0 c3 15 3b 21 1c 54 3c 8b 03 04 3c
       0.010246647 0.0022852235 0.01294616 0.008057485
000110 66 3d cf 3a 4c 11 db 3b 57 08 3f 3b a2 e4 99 ba
       0.0015811145 0.0066854116 0.0029149258 -0.0011741112
000120 54 ff 22 bd d3 d1 de bd fb 15 28 bd 4f 94 e0 bb
       -0.03979428 -0.108798645 -0.041036587 -0.0068536173
000130 6d ec 97 bd 90 3e 76 be 04 1f 61 bd c4 ec 5f bd
       -0.074181415 -0.24047303 -0.05496122 -0.054669157
000140 94 45 ef bd 88 7e f3 ba 21 46 b9 bd 82 50 c6 3c
       -0.11683193 -0.0018577138 -0.09046579 0.024208311
000150 cb 3b 9e 3d e2 53 8e 3c 58 2a 7f 3d ce aa 39 3d
       0.07726248 0.017373983 0.06229624 0.045328908
000160 30 d7 74 3d 17 3b 92 3d e4 7e 6e bd d3 8a af 3d
       0.05977553 0.07140177 -0.05822648 0.085714005
000170 68 fc 2c 3d ce 0e 16 3e d4 54 1b 3e 7d bf 04 3e
       0.0422329 0.14654085 0.15169078 0.12963672
000180 ba ce 9b 3d 19 72 39 bd e8 d5 22 3e 1a 2e 22 3d
       0.07607789 -0.045274828 0.15901911 0.039594747
000190 b3 44 18 bd 1e 8a 19 bd 14 bd bb 3d 04 33 87 bd
       -0.03717489 -0.037485234 0.09166923 -0.06601527
0001a0 f1 17 a8 bc 0c 80 8a bd 5c 19 4e bc 5e 27 78 bc
       -0.020519229 -0.06762704 -0.012579288 -0.015146105
0001b0 27 61 1d 3c 2d 4b 97 3d 47 01 f8 bd 67 8c 80 bd
       0.009605682 0.073873855 -0.12109619 -0.062767796
0001c0 ec ca 59 bd e5 9a 5a 3b 84 fc e0 3b ed 26 7a 3b
       -0.053172037 0.0033356484 0.0068660397 0.0038170174
0001d0 11 3e 1f be fb 78 a4 3d e3 81 56 3e 64 bd b7 bd
       -0.1555102 0.08030888 0.20947985 -0.0897167
0001e0 04 81 07 be b9 1d ff 3d 15 f6 44 be f0 bd 09 3e
       -0.1323281 0.12456841 -0.19234498 0.13451362
0001f0 b2 ef 21 3e 99 94 df bd eb c5 f2 3c 97 06 99 bd
       0.15814093 -0.10917015 0.02963539 -0.0747196
000200 ba 15 27 bd 77 1b b4 3d 58 53 cb 3c 58 bf 18 3d
       -0.040792204 0.08794301 0.024820015 0.037291855
000210 ea ac 2f 3d cf f1 e5 3d dd a1 6d 3c cf 92 78 bb
       0.042889513 0.11227762 0.014503923 -0.0037929302
000220 aa b7 bf 3c 7c 6c 6a bd b4 51 9a 3d 43 27 d3 bd
       0.023403008 -0.057232365 0.07535115 -0.10310223
000230 a3 ed 32 bb e8 36 31 be 8d e2 80 bd e5 93 0c bd
       -0.0027302287 -0.17306101 -0.06293211 -0.03432073
000240 41 6b 4e bd 81 a6 a2 bd ba 87 fd bd 38 f4 f3 3c
       -0.050395254 -0.07941914 -0.123794034 0.029779539
000250 d9 88 95 3c 13 fb b7 bc 48 11 66 3d 8a 58 f0 3c
       0.01825373 -0.022458589 0.056168824 0.029339094
000260 00 9e f2 3d f2 e9 8b 3b a6 8b f8 bc ce 11 d2 bd
       0.11846542 0.004269832 -0.030340027 -0.10257302
000270 c1 dc 47 3d 11 9a 04 3d 69 13 14 3d 0f d2 9c 3d
       0.04879451 0.03237349 0.036151323 0.07657253
000280 e4 ef ef 3c 35 ef ea bb 86 43 d8 bc 6a 46 99 bc
       0.029289193 -0.007169629 -0.026399385 -0.018710334
000290 d3 1f 3a 3d 5e ad 30 bd 6a 39 b6 bc 45 9e 82 3d
       0.045440506 -0.043134086 -0.022244174 0.06377844
0002a0 56 04 b1 bc e5 64 13 3e 88 0e e1 bc 19 c9 38 be
       -0.021608513 0.14393957 -0.02747275 -0.18045463
0002b0 95 45 e7 bc 34 10 b8 bd 14 55 51 bd 23 c5 53 bd
       -0.028231421 -0.089874655 -0.051106527 -0.051701676
0002c0 a1 6d f0 3d b0 65 0e 3e c3 10 df 3d c0 c5 62 3d
       0.1173966 0.13905978 0.10891869 0.05536437
0002d0 ee 6f 18 be aa ff cb 3c a4 80 12 3b 41 9b 9a 3c
       -0.14886448 0.024902184 0.0022354508 0.018872859
0002e0 79 8e 0c bd 0a f1 e6 bd f5 6d 17 3e 26 54 c2 3c
       -0.03431556 -0.11276443 0.14788039 0.023721766
0002f0 1f ec ff 3d 4a 22 09 3b 40 a7 d1 3a 63 40 42 3a
       0.124962084 0.002092498 0.0015995279 0.0007410107
000300 eb f7 08 3b 24 01 c4 3a bc 0b 39 3a ff 8a a9 3a
       0.0020899724 0.0014953953 0.00070589385 0.0012935101
000310 9d 79 2e 3a 3b 92 0f 39 74 ff a2 bd 0d 1d 32 3d
       0.0006655695 0.00013692018 -0.0795888 0.043484736
000320 f7 db af bd 25 d6 57 3d 4d e1 16 bc af 5b ff 3c
       -0.08586877 0.05269446 -0.009208989 0.031171648
000330 da 5b 74 bc a5 c8 e3 3d 22 4c 44 3c af 89 df ba
       -0.014914477 0.11122254 0.011981042 -0.0017054583
000340 45 4a 54 bb 89 d5 9e bb b6 da e8 b9 8f 11 95 ba
       -0.00323929 -0.0048472327 -0.0004441344 -0.0011373031
000350 e3 f0 35 bb 50 6f f5 b8 e6 41 df b9 63 cd cb ba
       -0.0027761988 -0.00011703244 -0.00042582973 -0.0015548881
000360 03 d8 f1 bc 04 63 a9 3d d5 29 02 3e a9 38 60 3d
       -0.029521948 0.08270839 0.1271127 0.054741535
000370 80 31 63 bd f8 8e c3 3d f3 44 61 3d ce a0 89 bd
       -0.05546713 0.095487535 0.054997396 -0.06720124
000380 b4 e1 5f bd 72 65 24 bd 45 84 0c 3e 3d 5b 1e bc
       -0.054658607 -0.04013581 0.13722332 -0.009665308
000390 7e 6d 8f 3b 42 bf 78 39 69 10 03 3c 2d 89 ba 3b
       0.004377066 0.00023722372 0.007999518 0.005692622
0003a0 53 96 10 3d 13 9e e4 3c 63 03 29 3c d7 c3 fe bd
       0.03529961 0.027907407 0.010315749 -0.12439697
0003b0 04 2a 9b bc ec 74 b4 bd 5b ef 11 be 5a cf 90 3d
       -0.018940933 -0.088113636 -0.14251463 0.07070799
0003c0 35 c7 db 3d 91 c1 d4 3d 42 f2 37 3e b3 f2 47 3d
       0.10731355 0.10388482 0.17963508 0.04881544
0003d0 e8 e1 93 3d cc bc ac 3d 22 92 b2 bd 28 df 32 be
       0.072208226 0.08434448 -0.08719279 -0.1746794
0003e0 9a ad bc bd 5c 70 34 bb 3f 1a 69 bd 93 05 55 bc
       -0.09212799 -0.0027532792 -0.056909796 -0.013001817
0003f0 2b c2 db 3c 70 1f f0 3d 55 77 90 3d de d0 36 be
       0.026825985 0.11724746 0.07054011 -0.17853114

resblock2.conv1.weight f4 [64, 64, 3, 3]
000000 73 53 a2 3d d5 26 82 3c 5f 7a 9b 3d a4 1f 2c bd
       0.07926073 0.015887657 0.075917 -0.042022362
000010 6b a0 39 3e de ba a3 bc 75 0f 16 3e e1 63 14 be
       0.18127601 -0.019986566 0.14654334 -0.14491226
000020 a2 d7 00 3d 2e bf 97 3d 32 56 92 bd 09 a8 55 be
       0.031455643 0.074095115 -0.07145347 -0.20864882
000030 de 91 9e bd de ce f1 bc cc 13 e7 3c 81 1d d2 3d
       -0.07742666 -0.029517587 0.028207682 0.10259534
000040 9e 7f ae bc 1c a7 a4 b9 16 9b d8 3d f0 ea 01 3e
       -0.021301087 -0.00031405024 0.10576455 0.12687278
000050 28 b5 d6 bd 3d f4 42 3e a1 72 8b bd 49 fa 1d be
       -0.104837716 0.19038482 -0.06808973 -0.15427507
000060 7e 27 a0 3c bf 97 fb bd d8 d8 8c bd f5 e3 a6 bc
       0.019550081 -0.12284803 -0.06877297 -0.02037237
000070 95 8e a1 bc 01 8a 19 3c c1 96 09 bd 4b 3c d6 3b
       -0.019721309 0.009371282 -0.033591036 0.006537949
000080 6d d9 57 b9 15 d6 27 be 72 79 09 bc bb 2e 11 be
       -0.00020584995 -0.1639026 -0.008390771 -0.14177983
000090 c9 12 15 be 22 1a e3 3b f2 87 c6 3d 88 ec 2e bc
       -0.14557947 0.0069306055 0.09693898 -0.010676511
0000a0 5b 0c 4e bc fb 28 3a 3e 7c 66 b0 bc 1e 88 2e bd
       -0.012576188 0.18179695 -0.021533243 -0.04261028
0000b0 59 7f dd 3d e9 d2 c6 3d 7b c6 58 3d 75 0a 03 3e
       0.10815305 0.09708197 0.05292366 0.12796958
0000c0 fe e8 24 bc f4 57 a2 3d 15 1c 01 be f1 4e 97 bb
       -0.010065315 0.07926932 -0.12608369 -0.004617565
0000d0 8b 0e 04 be cb 4c 6f 3d 66 1c d4 bc 20 3d da bd
       -0.12896173 0.058422845 -0.025892448 -0.1065619
0000e0 42 46 03 bc 06 dc c6 bd 3c b8 26 bd d9 ff 60 bd
       -0.008012356 -0.09709935 -0.040703043 -0.054931495
0000f0 c1 00 c9 3c c5 a5 87 bc f0 29 b0 3c 9c 62 4c be
       0.024536492 -0.016558537 0.021504372 -0.19959491
000100 c4 d9 1d 3e ad 29 b7 bd 87 55 0a be cf 26 88 bd
       0.15415102 -0.08943496 -0.13509189 -0.06648027
000110 76 09 89 bd 75 fc f2 3c 9b 72 15 3e 3e bf e3 3c
       -0.06691258 0.029661397 0.145945 0.027801152
000120 fd ae cd bd a0 92 d8 bb 85 8f 3a be 9c c5 41 be
       -0.10043142 -0.006609276 -0.18218811 -0.18923038
000130 6b 2e 0d 3e 30 2f ef 3d 64 de 40 3e 2f ba d5 bc
       0.13787238 0.11678922 0.18834835 -0.026089756
000140 3a 67 27 be b7 bc 75 bd 62 0e 89 3d 47 0a e2 bd
       -0.16347972 -0.059994426 0.066921964 -0.110371165
000150 c1 66 4d 3d bb 54 dc 3d e6 0c 48 3d 7d 2f b1 3c
       0.050146822 0.107583486 0.048840426 0.02162909
000160 da bf b9 bd c3 c5 2e bd 4f 2f 62 3d 5c 7d e5 bd
       -0.09069796 -0.04266907 0.0552209 -0.11205551
000170 0b 8b 02 bb dd 38 53 3c 96 f3 0a be ca 77 07 3e
       -0.0019919302 0.012891975 -0.13569483 0.1322929
000180 70 66 16 be a4 33 50 3d 1a 70 f9 3d d4 7e 80 3c
       -0.14687514 0.0508305 0.12179585 0.015685476
000190 65 63 08 be 84 ce 10 bd f2 77 17 3d 68 8c de 3c
       -0.13319166 -0.0353532 0.036979623 0.02716656
0001a0 2b 5e 8d bd ed 60 80 bc 14 ed c7 3d 60 17 cb bd
       -0.06902727 -0.015671218 0.09762016 -0.09916568
0001b0 c4 a7 fa 39 4c 24 28 3d e8 d9 8e bc 41 ec 9d 3b
       0.0004780871 0.04105024 -0.01743789 0.0048194234
0001c0 e3 de fc 3c 6d 22 a0 3d 34 69 4b be b3 13 01 bc
       0.030868 0.07819066 -0.1986435 -0.007878232
0001d0 64 35 38 bd 63 f7 01 bd c1 7f a5 bd 7f d2 aa bd
       -0.044972792 -0.031730067 -0.08081008 -0.0834093
0001e0 59 69 23 be ab 56 df bc a1 a4 52 be 4d a5 ba 3c
       -0.15958156 -0.027263006 -0.20570613 0.0227839
0001f0 19 c6 da 3d 23 08 99 bd af e8 a4 bd 26 e6 e3 3d
       0.106823154 -0.07472255 -0.080521934 0.11127882
000200 58 f4 4b bd 13 a2 94 3d c8 57 70 bc 60 42 4e bc
       -0.04979357 0.07257476 -0.014669366 -0.012589067
000210 1d 51 bd 3d 93 c0 49 3d 36 43 18 3d 7b ef 50 3d
       0.09243987 0.04925592 0.037173472 0.051009636
000220 f1 a6 69 3d bb f3 62 bd cf 52 8c 3e 58 5f ac 3d
       0.057043973 -0.05540822 0.27406928 0.08416623
000230 55 a7 0b 3e de f2 0d bd 7e 2d a5 3d cf b7 dc bd
       0.13638051 -0.034655444 0.080653176 -0.10777246
000240 5f 04 b9 bd 9b c1 9d bd 0f a6 15 bd 10 e4 44 3e
       -0.09034037 -0.07702943 -0.03653532 0.19227624
000250 78 fe 49 be 70 6f 83 3d fc f2 26 3d a6 03 01 be
       -0.19725978 0.064177394 0.04075907 -0.12599048
000260 a3 5f 82 3c a5 13 86 3d 18 08 e2 bd 16 24 ea 3d
       0.015914744 0.06546716 -0.110367 0.11432664
000270 a7 5c da 3c ab a5 de 3d c6 51 57 bc 45 24 9c be
       0.026655508 0.108714424 -0.013142055 -0.3049642
000280 53 d4 b5 3d 11 a3 19 bd 80 18 d7 3b da bc 39 bd
       0.08878388 -0.037509028 0.0065642 -0.04534612
000290 5c d8 43 bc 82 ba f3 3d e3 f8 96 3d 0e 8a 9a 3d
       -0.01195344 0.11900808 0.0737169 0.07545863
0002a0 b1 f2 12 3e 96 96 ed 3d 9d fb 08 3e 57 53 62 3c
       0.14350392 0.116009876 0.13377233 0.013813815
0002b0 66 c2 c9 bd 52 2d bc 3d a3 27 d9 bc 4d 79 9e bc
       -0.09851532 0.09188332 -0.026508158 -0.01934495
0002c0 1b 3d 54 3d 35 86 81 bd c5 ab c8 bd 28 e8 61 3d
       0.051816087 -0.06324426 -0.097983874 0.055153042
0002d0 ea 7c 62 3d 17 59 32 3c 04 8e 21 bc 36 46 13 bd
       0.05529491 0.0108854985 -0.009860519 -0.03595563
0002e0 f2 2d fe 3d 4c d0 e8 bb 98 51 37 bd 4f c3 57 3c
       0.12411107 -0.007104909 -0.04475555 0.013169124
0002f0 61 49 cb 3c 3b 59 e1 bd 7e 96 13 3d 38 0d 02 3e
       0.024815263 -0.110033475 0.036032192 0.12700355
000300 73 25 6c 3d e9 21 68 3c 82 d5 62 bd d9 90 ff 3c
       0.0576529 0.014168241 -0.0553794 0.031196998
000310 ba f4 1d bd 20 80 84 3d 3c 19 a2 3d 4a b8 6a 3b
       -0.038563468 0.064697504 0.07914969 0.0035815411
000320 fe bc 29 bd df fe f1 3d 1b c1 34 3d 63 07 bf 3d
       -0.041440003 0.11816191 0.044129472 0.09327581
000330 ff ea da 3d f8 fc 10 3d b8 c2 98 bd d7 19 59 3d
       0.10689353 0.0353975 -0.07459015 0.05300316
000340 ac 0e b4 bd c3 7d c7 bd f7 15 31 bc 60 2f 9d 3d
       -0.08791861 -0.09740784 -0.0108084595 0.07675052
000350 8f fe 1b 3d 53 0b 01 3e 30 22 5f bd a3 1b 49 3c
       0.038084563 0.12601976 -0.054475963 0.0122746555
000360 a6 97 fc 3d 59 b8 41 3d d3 96 2f bd 76 0d a5 bb
       0.12333612 0.04729495 -0.042868447 -0.005037005
000370 32 39 26 bc a8 55 f0 3b 3c 94 83 bd a4 13 f9 3c
       -0.010145472 0.00733443 -0.06424758 0.030404873
000380 4c 12 dc 3c 5a 14 a3 bd 5a c9 09 bd 3f 08 9b bd
       0.026864193 -0.07962866 -0.03363929 -0.07569932
000390 11 bc 10 be c1 58 a6 3c ab 6d 02 bc f2 2b d1 bd
       -0.14134242 0.020305993 -0.007960717 -0.1021346
0003a0 56 b5 80 bd 2b be f6 bd 77 b2 ed 3d e2 44 d9 3c
       -0.06284587 -0.120479904 0.11606305 0.026522104
0003b0 80 6b c1 bd fb 7e 04 3e 9b 54 84 3c 4f a7 71 bd
       -0.09444332 0.12939064 0.016153624 -0.05899745
0003c0 83 2b b8 bc 6d d1 67 3d d5 bd 7d bd 35 bc bb 3d
       -0.022481686 0.05659621 -0.061948616 0.09166757
0003d0 59 a5 f3 bc da d6 f8 bc 47 89 38 3a cd d3 94 3d
       -0.02974193 -0.030375887 0.0007039499 0.0726696
0003e0 0b fd e4 bd db 06 89 bd ac af 24 be f8 6e 1e be
       -0.111810766 -0.06690761 -0.16082639 -0.15472019
0003f0 24 b4 c2 bd e0 f9 0d bd ff 2c 8d bd d4 55 6f 3d
       -0.09507015 -0.034662127 -0.06893348 0.05843146
